Assets/Model/LandmarkComplexExplorer.onnx (onnx, 717560 bytes, 15 tensors)

action_model._continuous_distribution.log_sigma f4 [1, 3]
0	0xbf1bc6f2	-0.6085044
1	0xbf1e5fe8	-0.6186509
2	0xbeec1fd3	-0.4611803

action_model._continuous_distribution.mu.bias f4 [3]
0	0xbc7e1b82	-0.015509488
1	0xbd29cbde	-0.04145419
2	0xbb5c6dd3	-0.0033634796

action_model._continuous_distribution.mu.weight f4 [3, 256]
0	0x3bc54160	0.006019756
1	0xbafd794d	-0.0019338519
2	0x3b4e9c52	0.003152628
3	0x3cf7f9d5	0.030270496
4	0x3d83aa45	0.06428961
5	0x3c91a59f	0.01777917
6	0x3c952931	0.018208118
7	0x3d4d51dc	0.050126895
8	0xbce06a66	-0.027394485
9	0x3d2e98c1	0.042626146
10	0x3d4807f1	0.0488357
11	0x3d0579eb	0.032586973
12	0x3bd24eea	0.0064180987
13	0xbd6a1c8e	-0.057156138
14	0xbac5f741	-0.0015103595
15	0x3da737b6	0.08164923
16	0x3d5aefe9	0.053451452
17	0x3d03e1de	0.032197826
18	0xbd74248d	-0.05960517
19	0xbd6447a2	-0.055732377
20	0x3d38e151	0.045136753
21	0xbcfeb837	-0.0310937
22	0x3d81d769	0.06339914
23	0xbc924928	-0.01785715
24	0x3c6b45f0	0.014359936
25	0x3d4835fb	0.048879605
26	0x3d41bb0a	0.047297515
27	0x3d75be71	0.059996072
28	0xbd96888e	-0.073502645
29	0x3c6df67e	0.0145241
30	0x3ce7ad68	0.028280929
31	0xbd9b2ec5	-0.0757728
32	0xbdae77f4	-0.08518973
33	0xbd455a9c	-0.048182115
34	0xbc3a0418	-0.011353515
35	0x3d904a71	0.070454486
36	0xbb99f512	-0.004698404
37	0x3b6c4a31	0.0036054964
38	0x3cc0dd5b	0.02354305
39	0x3c91a10f	0.017776994
40	0x3cb45703	0.022014147
41	0x3c43f62c	0.011960547
42	0x3cdf9250	0.027291447
43	0x3c439828	0.011938132
44	0x3aeff15f	0.0018306187
45	0x3bf4a049	0.0074653965
46	0x3c373e60	0.011184305
47	0x3ca758d5	0.0204281
48	0x3d52a7a0	0.05142939
49	0x3d64a213	0.05581863
50	0x3d947804	0.07249454
51	0xbd6246d3	-0.055243324
52	0x3d554eb1	0.052077
53	0xbb8b5919	-0.0042525646
54	0x3d6b59d3	0.05745871
55	0xbce12e98	-0.027488038
56	0x3a657611	0.000875325
57	0xbd91b6c9	-0.071149416
58	0xbd2c7be6	-0.042110346
59	0x3ca1619a	0.01969986
60	0xbcbe3b84	-0.023221739
61	0xbc6e8583	-0.014558199
62	0x3ce2cc4e	0.02768531
63	0xbd272b6d	-0.0408129
64	0x3d3c9731	0.046042625
65	0xbc51b864	-0.01280031
66	0x3c2a1133	0.010380077
67	0x3d798b02	0.060923584
68	0x3d01021b	0.03149615
69	0x37f44461	2.9118908e-05
70	0x3a332ca3	0.00068349595
71	0x3c9d32e1	0.0191893
72	0x3c47e92a	0.012201587
73	0x3c81b2fe	0.01583242
74	0xbc8a3ae1	-0.016873779
75	0x3a4684a0	0.0007572863
76	0x3d926535	0.0714821
77	0xbc1ddc6b	-0.009635071
78	0x3d7cd2b6	0.061724387
79	0xbd3fb7d1	-0.04680616
80	0xbd6f4044	-0.058410898
81	0x3d14919e	0.036271684
82	0x3cc7eca3	0.02440483
83	0x3ceebaee	0.02914187
84	0x3cd8fc1f	0.026487408
85	0xbd68fe43	-0.056883108
86	0x3ce4f93b	0.027950874
87	0xbd039cbb	-0.03213189
88	0xbd9996de	-0.07499479
89	0x3d5521c6	0.052034162
90	0x3ca93c21	0.020658555
91	0x3beb392f	0.0071784477
92	0xbc163523	-0.009167942
93	0x3d69ab17	0.05704793
94	0x3d379d94	0.044828013
95	0x3b15851f	0.0022814942
96	0xbbb24209	-0.005440001
97	0x3cb7414e	0.022370007
98	0x3ca37a15	0.019955674
99	0x3cb0d96a	0.021588046
100	0xbcec566a	-0.0288498
101	0xbd224e45	-0.039625425
102	0x3b430b95	0.0029761542
103	0xbcfab63a	-0.03060447
104	0xbd2a72d3	-0.04161341
105	0xbd171de1	-0.03689373
106	0xbd0589d6	-0.032602154
107	0x3ce2348b	0.027612945
108	0xbdc4dd46	-0.09612517
109	0xbc1ac71c	-0.009446885
110	0x3d649e55	0.05581506
111	0xbce80c60	-0.028326213
112	0x3cbd8f21	0.023139538
113	0x3c6d5209	0.014484891
114	0x3d1f122c	0.03883569
115	0x3c0adc0e	0.008475317
116	0xbc9de9f5	-0.019276598
117	0x3d8072b6	0.062718794
118	0x3cad6e67	0.021170808
119	0x3d028e81	0.031874184
120	0xbd3609dc	-0.044442996
121	0x3d6c5a82	0.057703502
122	0x3db35939	0.08757252
123	0x3cee70bb	0.029106488
124	0x3c0e3bd8	0.00868126
125	0x3d8bb40b	0.0682145
126	0xbb9c21e8	-0.004764784
127	0xbd34813e	-0.044068567
128	0x3c7ab89d	0.015302804
129	0xbc8886ca	-0.016665835
130	0x3d0ec6e2	0.03485764
131	0x3d5d60ca	0.054047383
132	0xbcf35984	-0.02970577
133	0xbd64abae	-0.05582779
134	0xbd5b62e6	-0.053561114
135	0x3b3d9b7c	0.0028931787
136	0xbcfa1bc0	-0.03053081
137	0xbd8a1be2	-0.067435995
138	0x3c5e0203	0.013550284
139	0x3d2b5217	0.041826334
140	0xbc3065ce	-0.01076646
141	0xbcb42d8a	-0.021994371
142	0x3bc3e5ae	0.0059783077
143	0x3d74c4ab	0.05975787
144	0x3d36cea0	0.044630647
145	0x3be51447	0.0069909426
146	0xbd88a302	-0.06671716
147	0xbd052bbf	-0.032512423
148	0xbc21621a	-0.009850049
149	0x3c3d3f4d	0.011550737
150	0xbceb5f4d	-0.028731966
151	0x3db0087e	0.0859537
152	0x3d54a042	0.051910646
153	0x3c5f74e3	0.013638708
154	0x3c19cec1	0.009387673
155	0x3dcc6968	0.09981042
156	0x3d25a287	0.0404382
157	0xbd5285ee	-0.051397257
158	0x3d1ebe3c	0.03875564
159	0x3cb52271	0.02211115
160	0x3d370aa7	0.044687893
161	0x3d02f579	0.031972382
162	0xbd1e636c	-0.038669035
163	0xba19cef7	-0.0005867327
164	0x3d8e92d6	0.069616005
165	0xbd62c7ed	-0.055366445
166	0xbb5c39c0	-0.0033603758
167	0xbd44b7f7	-0.048027005
168	0x3d09b222	0.033617146
169	0xbd3766a3	-0.044775616
170	0xbced99af	-0.029003946
171	0x3c4b1bd8	0.012396775
172	0xbc9720a1	-0.018448176
173	0x3d03f5dd	0.032216895
174	0xbc428d04	-0.011874441
175	0xbcf1440c	-0.029451393
176	0xbc8fa143	-0.01753295
177	0x3d7edacd	0.062220383
178	0x3c6da009	0.014503487
179	0xbd13f6cd	-0.03612404
180	0x3ce46f53	0.027885115
181	0x3d9c4e74	0.07632151
182	0xb974258d	-0.00023283642
183	0x3cb821ad	0.022476995
184	0x3d05bdf6	0.032651864
185	0x3d447dba	0.047971465
186	0xbd5b3d17	-0.053525057
187	0x3c54e803	0.012994769
188	0x3d4a12fc	0.04933451
189	0x3d72ca85	0.05927517
190	0x3bb22de9	0.005437602
191	0xbb2f1f4d	-0.0026721538
192	0xbc44ff9d	-0.012023834
193	0xbbf4349f	-0.007452562
194	0xbd05553c	-0.03255199
195	0x3c8d4580	0.017245054
196	0x3d76d44d	0.06026106
197	0xbc9cb0f6	-0.01912735
198	0x3d593282	0.053026684
199	0x3da1e339	0.079046674
200	0x3d923382	0.071387306
201	0x3c38738e	0.011258019
202	0x3c2292b3	0.009922671
203	0x3afa8f1d	0.0019116137
204	0x3d9350e5	0.07193164
205	0x3d33edc4	0.043927923
206	0x3d7cf6f7	0.06175896
207	0x3c539841	0.012914718
208	0xbcf322e4	-0.029679723
209	0x3cdc476b	0.026889523
210	0x3bcbb8f3	0.006217116
211	0xbc20fc73	-0.009825814
212	0x399f7f13	0.0003042152
213	0x3c215c92	0.009848731
214	0x3d1bd2bd	0.038042773
215	0x3daf72b9	0.085668035
216	0x3c64489a	0.013933325
217	0xbc406a6e	-0.011744125
218	0xbd2b5591	-0.04182965
219	0x3cd9181f	0.02650076
220	0x3d3b084c	0.04566221
221	0x3c3bc0f6	0.01145958
222	0xbd5daeb4	-0.054121688
223	0x3c55f7d9	0.01305958
224	0xbd4cf3d3	-0.050037216
225	0x3dbafd4a	0.09130342
226	0xbbd18e83	-0.0063951625
227	0x3cefb752	0.029262219
228	0xbdde2338	-0.10846561
229	0x3d68c016	0.056823812
230	0x3a519f33	0.000799644
231	0xbd828d64	-0.06374624
232	0xbb934e6a	-0.0044954317
233	0x3c98871d	0.018619115
234	0x3ce83f0b	0.028350374
235	0xbcae6c75	-0.02129195
236	0x3c8dd841	0.017315032
237	0xba0763fd	-0.0005164741
238	0x3cf70a63	0.03015632
239	0xbd681c02	-0.056667335
240	0xbb27590d	-0.0025535256
241	0x3c1374e2	0.009000035
242	0xbd01194c	-0.031518266
243	0xbc9a39ce	-0.018826392
244	0xbc01c009	-0.00791932
245	0x3ad74f88	0.00164269
246	0x3c1c6770	0.009546146
247	0x3d240c0a	0.040050544
248	0xbd05e2e3	-0.03268708
249	0xbb70c21c	-0.0036736792
250	0xbdc9cbfa	-0.098533586
251	0x3d14a532	0.036290355
252	0x3bda3fdc	0.0066604447
253	0x3cf987b0	0.030460209
254	0x3c8b25cb	0.016985795
255	0x3cb4b987	0.022061123

action_model._discrete_distribution.branches.0.bias f4 [2]
0	0x3db5387c	0.08848664
1	0xbdb5384b	-0.08848628

action_model._discrete_distribution.branches.0.weight f4 [2, 256]
0	0x3e1cf53f	0.15327929
1	0x3e4cc63c	0.19997495
2	0xbc2ce2d5	-0.010552128
3	0x3dbe66ff	0.09296989
4	0x3d408038	0.04699728
5	0x3d892385	0.06696228
6	0x3d9baa36	0.076008245
7	0xbc9c8dbb	-0.019110551
8	0xbd6353ae	-0.055499725
9	0xbd220133	-0.039551925
10	0xbd86e9b1	-0.06587542
11	0x3d3dc3ca	0.046329297
12	0x3d98b8b5	0.07457105
13	0x3d6ab25e	0.05729901
14	0xbdb47ade	-0.088124976
15	0x3d5a74bc	0.053333983
16	0xbcb3ba01	-0.02193928
17	0xbd92e58e	-0.0717269
18	0xbd899de2	-0.06719567
19	0x3d2bdcbe	0.041958563
20	0xbd7c0141	-0.061524633
21	0x3db10871	0.08644188
22	0x3dd2ceb0	0.10293329
23	0x3dbf74cd	0.0934845
24	0x3c8f1798	0.017467305
25	0xbd84898a	-0.06471546
26	0x3c7842b5	0.015152623
27	0x3d959e64	0.07305601
28	0xbdceb26d	-0.10092626
29	0x3d8ee260	0.06976771
30	0xbd33ca2d	-0.04389398
31	0x3c4da98a	0.012552628
32	0x3c8c36f1	0.017116042
33	0x3dcd255a	0.1001689
34	0xbda0333d	-0.07822273
35	0xbcfe7461	-0.031061353
36	0x3dbf20d2	0.09332432
37	0xbe1ec760	-0.15505743
38	0xbd9de26b	-0.077092014
39	0x3d5d7668	0.054068
40	0xbdcb26b9	-0.09919495
41	0x3d9184be	0.07105397
42	0x3dd559e4	0.10417536
43	0x3e30e7bd	0.17275901
44	0xbd907946	-0.07054381
45	0xbcec64da	-0.028856684
46	0xbd73bf51	-0.059508625
47	0x3d408089	0.04699758
48	0x3d40ad37	0.04704019
49	0xbd1178bd	-0.035515536
50	0x3d978b52	0.0739962
51	0xbdbc38df	-0.09190535
52	0xbcf43806	-0.02981187
53	0x3df3934f	0.11893331
54	0x3d9dabe2	0.076988
55	0xbe109578	-0.14119518
56	0x3dcc2526	0.09968023
57	0xbd55f194	-0.05223234
58	0x3d5fff41	0.05468679
59	0x3deee28c	0.11664304
60	0xbd7a632e	-0.06112974
61	0xbd114268	-0.03546372
62	0xbd848877	-0.06471341
63	0xbcd6163d	-0.02613365
64	0xbd644d1b	-0.055737596
65	0x3da9fa5e	0.08299707
66	0xbd6ab2cf	-0.05729943
67	0x3d73f81d	0.05956279
68	0xbd961f39	-0.07330174
69	0xbd8a95be	-0.06766842
70	0xbd624b77	-0.05524775
71	0xbe05e088	-0.13073933
72	0x3d3d1566	0.046162985
73	0xbd951734	-0.07279816
74	0xbd669c2e	-0.05630129
75	0x3d555bb3	0.052089404
76	0xbd9ce7f5	-0.0766143
77	0x3d514247	0.051088598
78	0x3d457fb4	0.04821749
79	0x3d295586	0.041341327
80	0x3d2b0b1b	0.041758638
81	0x3db46d3e	0.08809899
82	0x3df69ada	0.12041254
83	0xbddfe98a	-0.10933216
84	0xbdfd1ffc	-0.12359616
85	0x3d885aaf	0.066579215
86	0xbe007c80	-0.12547493
87	0x3daf554e	0.085611925
88	0x3daae771	0.08344925
89	0xbd0dccc5	-0.03461911
90	0xbd5e7919	-0.054314706
91	0xbdb0375f	-0.08604311
92	0xbdb0d85c	-0.08635017
93	0xbd2ace58	-0.04170069
94	0x3d9c8d67	0.07644158
95	0x3d3c0f44	0.045912996
96	0x3d5cc562	0.053899176
97	0xbd8d18fa	-0.068895295
98	0xbd200576	-0.039067708
99	0xbe12ee41	-0.14348699
100	0x3da35503	0.07975199
101	0x3d8dd8e4	0.06926134
102	0x3e148837	0.14505087
103	0xbdaa5045	-0.083160914
104	0xbccc000e	-0.02490237
105	0xbd9943ab	-0.0748361
106	0x3ccd71b2	0.025078628
107	0xbd51cb8c	-0.051219508
108	0x3d81b6fe	0.06333731
109	0x3d96d99c	0.073657244
110	0xbcfddc7b	-0.030988922
111	0xbdecb9c3	-0.11558869
112	0xbd270e96	-0.040785395
113	0x3e308f8d	0.1724226
114	0xbd5a08bc	-0.053230986
115	0x3e238d5e	0.15971896
116	0xbe19c61c	-0.15016979
117	0xbd2c0746	-0.041999124
118	0x3d396ed7	0.04527172
119	0x3d271488	0.040791065
120	0xbd876805	-0.06611637
121	0xbcbe8d41	-0.023260714
122	0xbca411cb	-0.020028016
123	0x3ddd5cf6	0.108087465
124	0x3cfd2bb8	0.030904636
125	0xbd329d8e	-0.043607287
126	0xbd953a07	-0.072864585
127	0xbd9a33a2	-0.075293794
128	0xbd9f8e48	-0.0779081
129	0x3d4c0a2f	0.0498144
130	0xbd81a6f6	-0.063306734
131	0x3db044d4	0.08606878
132	0x3da9e25d	0.082951285
133	0xbd816077	-0.06317227
134	0xbdaab79e	-0.083358034
135	0x3e2436bb	0.16036503
136	0x3d9417ce	0.07231103
137	0x3d88642c	0.06659731
138	0x3d509e05	0.05093195
139	0xbded447b	-0.11585327
140	0x3cb4cc20	0.02206999
141	0x3d828150	0.06372321
142	0xbd972579	-0.07380194
143	0xbd317b38	-0.0433304
144	0xbd6fabd3	-0.058513474
145	0x3df84b44	0.12123731
146	0x3ca1309c	0.0196765
147	0x3da77e70	0.08178413
148	0xbd622fa3	-0.05522121
149	0x3e331fb7	0.17492567
150	0x3daba0ba	0.083802655
151	0xbcb99674	-0.02265475
152	0x3e27edb4	0.1639927
153	0x3d1f72ec	0.038927957
154	0xbd689b59	-0.056788776
155	0x3bb8b1c1	0.0056364243
156	0xbd396b5f	-0.045268413
157	0x3d97182d	0.07377658
158	0x3d162e24	0.036665097
159	0xbdd1e90e	-0.1024953
160	0xbd21d711	-0.039511744
161	0xbd720b9f	-0.059093114
162	0x3dca4bb7	0.09877723
163	0x3e015896	0.12631449
164	0xbd24ded5	-0.04025157
165	0xbc027ff8	-0.00796508
166	0x3e04f0bd	0.1298246
167	0x3d363db8	0.044492453
168	0xbd64b932	-0.05584068
169	0xbdb2c1de	-0.087283835
170	0x3e0248b9	0.12723054
171	0x3e3374d2	0.17525032
172	0xbd9f9c89	-0.077935286
173	0xbdb84358	-0.0899722
174	0x3d8292e9	0.06375677
175	0x3d39307d	0.045212258
176	0x3e00c219	0.12574042
177	0x3dab7273	0.08371439
178	0x3d6975a7	0.056996968
179	0xbdf3d19b	-0.119052134
180	0x3e4302b6	0.19044003
181	0x3d02291f	0.031777497
182	0xbd72207e	-0.05911302
183	0x3d6d101b	0.057876687
184	0x3d664012	0.056213446
185	0xbd5cf744	-0.05394675
186	0x3d28fa74	0.041254476
187	0x3d57e730	0.052710712
188	0xbdbdc108	-0.092653334
189	0x3dcd3356	0.10019557
190	0x3a0f4503	0.00054653006
191	0xbd59a9d4	-0.053140476
192	0x3d85b1e7	0.06528073
193	0x3d7e1691	0.06203324
194	0x3d4061c4	0.046968237
195	0x3e2acde4	0.16680104
196	0xbc93ef85	-0.018058548
197	0x3d82d650	0.06388533
198	0xbcac74df	-0.021051822
199	0xbd71d328	-0.059039265
200	0xbd56a002	-0.05239869
201	0x3e02638d	0.12733288
202	0xbd7a9af1	-0.06118292
203	0x3cd8fe5e	0.02648848
204	0x3c839761	0.016063394
205	0x3d154bbb	0.036449175
206	0xbc208c00	-0.009799004
207	0x3da69bf3	0.08135214
208	0xbda574da	-0.08078928
209	0x3deabb7c	0.11461541
210	0x3bd21b90	0.006411977
211	0x3db9eba6	0.090781495
212	0xbc7c3a85	-0.0153948115
213	0x3d9b74a1	0.075906046
214	0x3e40cbeb	0.18827789
215	0xbcf85895	-0.030315677
216	0xbe14f2c8	-0.14545739
217	0x3da26bc4	0.07930711
218	0x3d265ebb	0.040617686
219	0xbdfb8ee5	-0.12283114
220	0x3d891160	0.06692767
221	0x3e66c94a	0.22537723
222	0x3b9adee4	0.0047262777
223	0xbd8e9b5c	-0.06963226
224	0x3da91832	0.08256568
225	0x3d192172	0.03738541
226	0x3dbc8ef2	0.09206952
227	0x3d747545	0.05968215
228	0x3d5856d0	0.052817166
229	0x3e2d455d	0.16920991
230	0x3bbb4e4d	0.0057161213
231	0x3ccce5a1	0.02501184
232	0x3d2c98f0	0.04213804
233	0xbdfb06c0	-0.12257147
234	0x3d5675e0	0.052358508
235	0xbd98f0d7	-0.074678116
236	0x3d16f3c8	0.03685358
237	0xbe2f87b8	-0.17141616
238	0x3cd18b26	0.025579046
239	0x3d2c42f2	0.04205603
240	0xbdc857f4	-0.09782401
241	0x3ce34593	0.027743137
242	0x3dba1174	0.0908536
243	0x3da633b8	0.08115333
244	0xbd8cec18	-0.06880969
245	0xbe0b89a7	-0.13626729
246	0x3d2de158	0.042451233
247	0x3d9cc031	0.07653845
248	0x3d4264e9	0.047459517
249	0xbd87e5fa	-0.066356614
250	0x3c33c6c5	0.010972683
251	0x3c88afdb	0.016685417
252	0x3d879994	0.066210896
253	0xbde4ef5f	-0.11178469
254	0xbd488c71	-0.04896206
255	0xbd8253ce	-0.06363641

network_body._body_endoder.seq_layers.0.bias f4 [256]
0	0x3ba82d1a	0.0051323297
1	0xbbf5bb87	-0.0074991616
2	0x3ce05c17	0.027387662
3	0x3cd8eb00	0.026479244
4	0xb7ff436b	-3.0429763e-05
5	0x3cf412c9	0.029794114
6	0x3cc3055e	0.02380627
7	0x3b9c9351	0.0047783037
8	0x3b218319	0.002464479
9	0x3ca0c634	0.01962576
10	0x3c86af98	0.016441151
11	0xbc65ff0b	-0.014037858
12	0x3c00ba80	0.007856965
13	0x3c53fbc8	0.012938447
14	0xbbe9d61e	-0.0071361205
15	0xbb837e01	-0.0040128236
16	0x3c67fb86	0.014159089
17	0x3cae7c76	0.021299582
18	0xbce47266	-0.02788658
19	0x3c40ccb3	0.011767554
20	0xbc4c599f	-0.012472539
21	0x3c4ffa4a	0.012693951
22	0x3c18de1a	0.009330297
23	0x3bbcdcba	0.0057636173
24	0x3c04b546	0.00809986
25	0xbb3203fc	-0.002716302
26	0xbccde78a	-0.02513482
27	0xbcd6d000	-0.026222229
28	0x3cf42ee8	0.029807523
29	0xbc8e7550	-0.017389923
30	0x3c225a6d	0.0099092545
31	0xbcb94baa	-0.022619087
32	0x3cb012ef	0.021493403
33	0xbba740ff	-0.0051041837
34	0xbc21852f	-0.009858414
35	0x3c24e1f0	0.010063633
36	0x3c74d9af	0.014944478
37	0xbb2fa6c1	-0.0026802274
38	0xbbb9b155	-0.0056668916
39	0x3ced83d6	0.028993528
40	0xbcc2c373	-0.023774838
41	0xbc568a4e	-0.013094498
42	0x3c2edeff	0.010673284
43	0x3c1fe472	0.009759055
44	0x3ce88730	0.028384775
45	0xbc5f4296	-0.013626715
46	0x3ce356f5	0.027751425
47	0x3b42f92c	0.0029750569
48	0x3d083c77	0.03326079
49	0xbd0afd73	-0.033933114
50	0x3cf044d6	0.029329699
51	0x3ccd85bc	0.025088184
52	0x3ca78feb	0.020454368
53	0x3d1243ad	0.035709072
54	0x3c958802	0.01825333
55	0x3c482db7	0.0122179305
56	0xb9c9425f	-0.00038387158
57	0xbc9a6cb3	-0.01885066
58	0xb9af5026	-0.00033438316
59	0xbccec8ee	-0.025242295
60	0xbc20748c	-0.009793412
61	0xbd239156	-0.039933525
62	0xbc70f991	-0.014707939
63	0x3c3090cc	0.01077671
64	0xbb909caa	-0.004413207
65	0x3ccf4881	0.025303127
66	0x3d115881	0.035484795
67	0xbcaa94f6	-0.020822983
68	0xbbe7ead2	-0.0070775533
69	0x3d066244	0.032808557
70	0xbcd3dc1f	-0.025861798
71	0x3c359b96	0.011084458
72	0x3d0cdeae	0.03439205
73	0x3c943db1	0.018095823
74	0xbb99a08b	-0.0046883277
75	0x3c39820d	0.01132251
76	0x3b628bef	0.003456827
77	0x3cc9614a	0.024582524
78	0xbc84c33c	-0.016206376
79	0x3c8fb603	0.017542845
80	0x3cd012d9	0.025399612
81	0x3cb866cf	0.02250996
82	0xbb8019c0	-0.0039093196
83	0x3be96f90	0.007123895
84	0x3cbf4f8f	0.023353366
85	0xbd41d921	-0.04732621
86	0x3baf74c1	0.0053544943
87	0xbc2b9990	-0.010473624
88	0x3c9c2d1b	0.019064477
89	0xbb5349d3	-0.0032240048
90	0xb9c9a869	-0.00038463183
91	0x3ca1e443	0.019762164
92	0xbd2a727b	-0.041613083
93	0x3c077bba	0.008269245
94	0xbcc81cab	-0.024427732
95	0xbc1ae641	-0.009454311
96	0x3c66535f	0.014057963
97	0x3cb51c2b	0.022108158
98	0xbc4a1061	-0.012333007
99	0x3ca32367	0.019914342
100	0x3bea1e97	0.00714476
101	0x3ce5c47f	0.028047798
102	0x3ce5411d	0.02798515
103	0xb952796f	-0.00020072398
104	0x3ce8b58e	0.028406885
105	0x3c1cb7c3	0.009565297
106	0x3c8a378c	0.01687219
107	0xb846e533	-4.7420337e-05
108	0x3c8f497d	0.017491097
109	0x3bf1fe70	0.0073850676
110	0xbc18b4eb	-0.009320478
111	0xbce6eef3	-0.028190112
112	0xbb4cc01b	-0.0031242433
113	0x3c1478f6	0.009062042
114	0x3aa1c219	0.0012341171
115	0xbcdbaeb1	-0.026816698
116	0x3c35b1a7	0.011089719
117	0x3cde3589	0.027125137
118	0xbccfa75a	-0.025348354
119	0x3cb8a6ef	0.022540538
120	0x3cb6c36c	0.022309981
121	0x3c5f56ad	0.013631505
122	0x3cd69035	0.02619181
123	0x3c7bd6e6	0.01537106
124	0x3c7fe995	0.015619655
125	0xbc1328e9	-0.008981922
126	0xbd14a8a4	-0.03629364
127	0x3c82f1d6	0.015984457
128	0x3c8ea257	0.017411394
129	0x3cbcf7f0	0.023067445
130	0xbc8f8eeb	-0.017524203
131	0x3ca6dcd9	0.02036898
132	0x3cb4418b	0.02200391
133	0x3cc462c4	0.023972876
134	0x3c8a534b	0.01688542
135	0xbc16c939	-0.009203249
136	0x3cf3c716	0.029758018
137	0xbb03c872	-0.0020108488
138	0xbcc16276	-0.02360652
139	0x3caa7e51	0.020812185
140	0xbc3b8780	-0.01144588
141	0x3be76cfe	0.0070625534
142	0x3ca876ad	0.020564402
143	0x3ce1b0cf	0.02755013
144	0xbcd20576	-0.02563737
145	0xbbf9e307	-0.0076259407
146	0xbc0d7ef8	-0.008636229
147	0x3c7c0e4f	0.015384271
148	0x3cdb80cc	0.026794814
149	0x3be047a5	0.006844478
150	0x3b260155	0.0025330384
151	0x3c2104bd	0.00982779
152	0xbc6cc5f6	-0.014451494
153	0xbc4cf8ea	-0.012510518
154	0xb971d865	-0.00023064164
155	0x3aaab907	0.0013025113
156	0xba88fda8	-0.0010451572
157	0xbd157782	-0.036490925
158	0x3c4734b5	0.012158562
159	0xbc335454	-0.010945398
160	0x3a8c3e8f	0.0010699796
161	0xbce56cfb	-0.028006067
162	0x368a826b	4.127903e-06
163	0x3bf2a166	0.007404494
164	0x3c896ed2	0.016776476
165	0x3c377002	0.011196138
166	0x3cbead8e	0.023276117
167	0xbbc778f0	-0.006087415
168	0x3c76f20f	0.01507236
169	0x3be6ce20	0.007043615
170	0xba5b8205	-0.00083735614
171	0xbc815ddd	-0.015791828
172	0x3c86266d	0.016375745
173	0xbcd60106	-0.026123535
174	0x3ba58420	0.005051151
175	0x3c6dfcc4	0.014525596
176	0x3c11371b	0.008863236
177	0xbcb722ba	-0.022355426
178	0x3b153d5b	0.0022772166
179	0x3c91dbbb	0.017804971
180	0x3c3df005	0.01159287
181	0xbbae4cd4	-0.005319217
182	0xbc9c5c7d	-0.01908707
183	0x3bfacf2c	0.0076540913
184	0xbbde7898	-0.0067892782
185	0xbc6dcf4c	-0.014514755
186	0x3d01f0b5	0.031723697
187	0x3c37c1d4	0.011215646
188	0xbca3f8e4	-0.020016141
189	0x3cf22fbc	0.029563777
190	0x3c29b7e3	0.010358783
191	0xbd0c51f9	-0.034257863
192	0xbb8e7f51	-0.0043486734
193	0x3cb065ef	0.02153298
194	0x3c9fc23a	0.019501794
195	0x3c688984	0.0141929425
196	0x3c123bf7	0.00892543
197	0x3c4f8cfb	0.01266789
198	0x3caef573	0.021357274
199	0xbbb6d4c5	-0.0055795633
200	0xbcb87746	-0.022517812
201	0xbcc0ad23	-0.023520058
202	0x3a804d8d	0.0009788737
203	0x3c8253f4	0.015909173
204	0x3cb246c6	0.021762263
205	0x3ce8328d	0.028344417
206	0x3c9a493a	0.018833745
207	0xbc842cfa	-0.016134728
208	0x3c61bc4f	0.013777806
209	0x3ccaf487	0.024774803
210	0xbc201948	-0.0097716525
211	0x3c58c0b5	0.013229539
212	0xbaed8616	-0.0018121626
213	0x3cb55484	0.022135027
214	0xbcc7885e	-0.024357017
215	0x3c833293	0.016015327
216	0x3d0eade8	0.03483382
217	0xbb84ed28	-0.0040565915
218	0xbc7c8b2c	-0.015414041
219	0x3bb9d100	0.0056706667
220	0x3ccb57ef	0.024822203
221	0x3c5b7f92	0.013397114
222	0x3c432cb0	0.01191251
223	0x3c4f0a0b	0.012636672
224	0xbced65e3	-0.028979247
225	0x39ed6cc9	0.00045285214
226	0x3b613d25	0.003436872
227	0xbc801426	-0.015634608
228	0xbc87187f	-0.016491173
229	0x3cba1209	0.022713678
230	0x3c44e82d	0.012018246
231	0xbd4f2974	-0.050576642
232	0xbd259cfd	-0.04043292
233	0x3b8af4a1	0.004240588
234	0x3c2bf054	0.01049431
235	0xbcf1a7a0	-0.029498875
236	0xbcf41c32	-0.0297986
237	0x3c89098b	0.016728183
238	0x3cc2c50d	0.023775602
239	0x3cb834d3	0.022486126
240	0xbc7aa56d	-0.01529823
241	0x3c5b5953	0.013387996
242	0xbc34e85b	-0.011041726
243	0x3cadb996	0.021206658
244	0xbadfaee0	-0.0017065667
245	0xbccb045a	-0.024782348
246	0x3cc155b4	0.023600437
247	0xbd09dc21	-0.033657197
248	0x3ca78440	0.020448804
249	0xbd214103	-0.03936864
250	0x3be3423b	0.0069353855
251	0xbc24b46a	-0.01005278
252	0xbc834941	-0.016026141
253	0xb9e5ec76	-0.0004385446
254	0x3ce55b8b	0.027997753
255	0xbc590496	-0.013245722

network_body._body_endoder.seq_layers.0.weight f4 [256, 256]
0	0x3dc03732	0.09385528
1	0xbd9142af	-0.07092797
2	0x3ab14863	0.0013525601
3	0xbddd2863	-0.10798719
4	0xbd103281	-0.035204414
5	0x3b57bdf4	0.0032919617
6	0x3c50fb5c	0.012755241
7	0x3e191fb5	0.14953502
8	0xbd426740	-0.047461748
9	0x3db96e39	0.090542264
10	0x3dfe7dc0	0.12426329
11	0xbb64dccf	-0.0034921651
12	0x3c40fc1b	0.011778857
13	0x3cb8d1b5	0.022560934
14	0x3c543f60	0.012954563
15	0xbd11a4bb	-0.03555749
16	0xbba77a6c	-0.0051110294
17	0xbcc9baa7	-0.024625136
18	0x3d5cabc7	0.053874757
19	0x3d2f0689	0.04273084
20	0x3ca9e018	0.020736739
21	0x3d490497	0.049076643
22	0x3ce8837b	0.028383007
23	0x3cfc9df1	0.030837031
24	0x3d23ab9e	0.03995859
25	0x3db72989	0.08943469
26	0xbc424994	-0.011858363
27	0x3dc0d4db	0.09415599
28	0x3c21aec3	0.009868327
29	0xbc6ad0de	-0.014332024
30	0x3cc65b2d	0.024213398
31	0xbddb9459	-0.107216544
32	0xbccf66f0	-0.02531764
33	0xbc7e5e56	-0.015525421
34	0x3bf2b6d3	0.0074070483
35	0x3b82d835	0.003993059
36	0x3dc35425	0.09537534
37	0xbdc03841	-0.093857296
38	0x3d0b5f38	0.034026355
39	0x3db9ca67	0.09071808
40	0xbc84d112	-0.016212974
41	0x3ada8893	0.0016672782
42	0x3d27e27f	0.040987488
43	0xbd259b15	-0.0404311
44	0x3d86f480	0.065896034
45	0xbe10087e	-0.1406574
46	0x3d923b5f	0.071402304
47	0xbc87878a	-0.016544122
48	0xbd3d9e4b	-0.046293538
49	0xbe1d24c6	-0.15346059
50	0x3c4f1016	0.0126381125
51	0xbdc7f31e	-0.09763168
52	0x3e1eb2e2	0.15497926
53	0x3bf4793b	0.007460741
54	0xbdcd988a	-0.1003886
55	0xbbd6cb54	-0.0065550003
56	0xbe219947	-0.15781127
57	0x3d366fb6	0.04454013
58	0xbe1ddc4e	-0.15416071
59	0x3da77c31	0.081779845
60	0x3e1d0fa0	0.15337992
61	0xbd9036bb	-0.07041689
62	0xbd74e2cf	-0.059786614
63	0xbcd14f4e	-0.02555051
64	0xbd616852	-0.05503113
65	0xbc63d128	-0.013904847
66	0xbd0cad77	-0.034345116
67	0xbd39bd15	-0.04534634
68	0x3b0f431c	0.0021860069
69	0x3d2c21ad	0.042024303
70	0x3d6374e3	0.055531394
71	0xbd8e805c	-0.06958076
72	0xbd0b1121	-0.033951882
73	0xbd55dd0f	-0.05221277
74	0xbcbc6f84	-0.023002394
75	0x3e036ac0	0.1283369
76	0x3dd9ad54	0.10628763
77	0xbdc87bb2	-0.09789218
78	0xbce4bde5	-0.02792258
79	0xbd4a31b8	-0.04936382
80	0xbcf4ceaf	-0.02988371
81	0xbd9ca1ac	-0.07648024
82	0xbd6e9427	-0.058246758
83	0x3c095170	0.008381233
84	0xbdc38ee5	-0.09548739
85	0xbc487f35	-0.01223736
86	0xbd79dcbd	-0.061001528
87	0x3d841da9	0.0645097
88	0x3d80b7bc	0.062850446
89	0x3d189976	0.037255727
90	0xbe2142af	-0.15748094
91	0xbd7f47d4	-0.06232436
92	0xbd08c352	-0.033389397
93	0x3d9ab358	0.07553738
94	0x3ab9d9b0	0.0014179256
95	0xbd81f2a6	-0.0634511
96	0xbd85bce2	-0.06530167
97	0x3d8e09fe	0.069354996
98	0xbc7c45b7	-0.015397481
99	0xbbfa5e65	-0.0076406472
100	0xbc45ace1	-0.012065143
101	0x3dbae4f4	0.091257006
102	0x3e175cf3	0.14781551
103	0xbc847325	-0.016168186
104	0x3dc87432	0.097877875
105	0x3c9cf57a	0.019160021
106	0x3c413318	0.011791967
107	0x3d1ddcec	0.038540766
108	0x3d3f04de	0.0466355
109	0x3d89e87d	0.06733797
110	0xbd86f036	-0.06588785
111	0xbe6bf916	-0.23044237
112	0x3d3f86bb	0.04675935
113	0x3d41f7f8	0.047355622
114	0x3db591f0	0.08865726
115	0xbce3f3be	-0.027826186
116	0xbd33f239	-0.043932173
117	0x3dbc16eb	0.09184059
118	0xbdfaed6e	-0.12252317
119	0x3c125d38	0.008933358
120	0x3d7d0431	0.061771575
121	0x3dde1782	0.108443275
122	0x3e000cc0	0.12504864
123	0x3d274ab7	0.040842738
124	0xbd32f76b	-0.043692987
125	0xbc154c3b	-0.009112413
126	0xbc90fa91	-0.017697604
127	0x3d6897a8	0.056785256
128	0x3b69e3f1	0.0035688842
129	0x3d2b21a2	0.04178012
130	0xbdfcf612	-0.12351622
131	0xbd76fee9	-0.060301695
132	0x3c127db6	0.008941105
133	0xbc08edc4	-0.008357469
134	0xbc9a69bc	-0.018849246
135	0xbc6f53b7	-0.0146073615
136	0x3d2ffd48	0.042966157
137	0xbbecb105	-0.007223251
138	0xbd9788bc	-0.07399127
139	0x3b1c3d70	0.002384033
140	0xbdc11540	-0.09427881
141	0xbc678b86	-0.014132386
142	0x3d8e8e0b	0.06960686
143	0x3d84b18d	0.064791776
144	0xbd45bda3	-0.048276555
145	0xbd7f9d8b	-0.062406104
146	0x3d05f391	0.032702986
147	0x3c62a3dd	0.013833013
148	0xbe1213b0	-0.14265323
149	0x3cb019f2	0.021496747
150	0xbcee227f	-0.029069183
151	0x3cdf7a91	0.027280124
152	0xbd89c51d	-0.067270495
153	0xbd84a9fa	-0.06477733
154	0x3c8009cb	0.01562967
155	0x3dd376a6	0.10325365
156	0xbda6b5fc	-0.081401795
157	0xbd99f1f9	-0.07516856
158	0xbd35c712	-0.0443793
159	0xbe2a1142	-0.16608146
160	0xbdb40720	-0.087904215
161	0xbd28e274	-0.041231588
162	0xbc5dcc70	-0.013537511
163	0xbbdfc9e4	-0.006829487
164	0xbda95b73	-0.08269396
165	0xbd78ea7b	-0.060770493
166	0x3ba1c912	0.0049372995
167	0xbd9216ac	-0.071332306
168	0x3dc9c8d0	0.09852755
169	0x3cbe04ea	0.023195703
170	0xbd783534	-0.060597613
171	0x3d9a1811	0.075241216
172	0xbd03ed96	-0.032209
173	0x3da044fb	0.07825657
174	0xbd92e079	-0.07171721
175	0x3d78f49d	0.060780156
176	0xbcb0e883	-0.021595245
177	0x3d970a1c	0.07374975
178	0xbac444cb	-0.0014974115
179	0x3d3f62e4	0.04672517
180	0x3baa14f1	0.0051904847
181	0x3bfe4471	0.0077596237
182	0x3cb48878	0.02203773
183	0xbcdfa388	-0.027299657
184	0x3bf2be97	0.007407974
185	0xbd5b082a	-0.053474583
186	0x3da54272	0.08069314
187	0x3bc0a322	0.005878822
188	0xbd7e544b	-0.062092107
189	0xbd8c4bc5	-0.068503894
190	0x3b42cb02	0.0029723053
191	0xbde3025e	-0.11084436
192	0xbe024795	-0.12722619
193	0xbdcf67c1	-0.10127211
194	0xbd25f14e	-0.04051333
195	0xbdf3cb50	-0.11904013
196	0x3d0351f4	0.03206058
197	0xbd680dfd	-0.056653965
198	0x3ced1118	0.028938815
199	0xbb5b8f0f	-0.0033502018
200	0xbdde77ed	-0.10862718
201	0x3cc8eb79	0.024526345
202	0xbdd09f29	-0.101866074
203	0x3db21701	0.08695794
204	0xbcc112e2	-0.023568574
205	0xbc8f6149	-0.017502444
206	0x3ddb4cff	0.10708045
207	0x3c6c37c7	0.014417595
208	0xbdb105fc	-0.086437196
209	0xbdf43336	-0.1192383
210	0x3bd6abdd	0.0065512494
211	0xbd6400b2	-0.055664726
212	0xbd09966f	-0.03359073
213	0x3cc49ceb	0.024000606
214	0xbb88cfa7	-0.0041751447
215	0x3e0f2357	0.13978325
216	0x3d4076d3	0.04698832
217	0x3da643b5	0.08118383
218	0x3c52c0db	0.012863363
219	0x3c857e13	0.016295468
220	0xbd9d077d	-0.07667444
221	0xbc778fe5	-0.015109991
222	0x3e14cbc9	0.14530863
223	0x3c8c1363	0.017099088
224	0xbdc97549	-0.098368235
225	0xbd5adf90	-0.053435862
226	0xbc04a435	-0.008095791
227	0xbd4fbb76	-0.050715886
228	0x3d950a90	0.07277405
229	0x3df19b1e	0.117971644
230	0x3d4fde3a	0.05074904
231	0xbcdd4d64	-0.027014442
232	0x3e1e7369	0.15473713
233	0xbd43bbda	-0.04778657
234	0xbddbaf3e	-0.10726784
235	0x3d14dac7	0.036341455
236	0x3e5f293a	0.2179307
237	0xbcdf3fb2	-0.027252052
238	0xbc95c2c1	-0.018281342
239	0x3e1bd47a	0.15217772
240	0xbcb5408b	-0.022125503
241	0xbca732b6	-0.020409923
242	0xbd5a165e	-0.053243987
243	0xbe1ac04d	-0.1511242
244	0x3cfaee7c	0.030631296
245	0x3cb462b6	0.022019725
246	0x3d6de421	0.05807889
247	0xbd9adcb4	-0.07561627
248	0x3c414486	0.011796122
249	0x3d63fc97	0.05566081
250	0x3c4149b0	0.011797354
251	0xbd7fb61a	-0.062429525
252	0x3e2fbc09	0.17161573
253	0xbc8976bc	-0.01678025
254	0xbe49d3b0	-0.19709659
255	0x3d1ba362	0.03799761

network_body._body_endoder.seq_layers.2.bias f4 [256]
0	0x3d5b0636	0.05347272
1	0x3d8c6d41	0.06856776
2	0x3d092ac8	0.033488065
3	0x3c64b708	0.013959654
4	0x3d1bcc91	0.038036887
5	0x3d0ee74c	0.03488855
6	0x3d26d5e4	0.040731326
7	0xbc24cac6	-0.010058111
8	0x3ca44320	0.020051539
9	0xbc8e85db	-0.017397812
10	0xbb6fcdb5	-0.0036591117
11	0x3cf8a684	0.030352838
12	0x3cfa6651	0.030566366
13	0x3cfde414	0.030992545
14	0xbcf48762	-0.029849712
15	0x3cef3c69	0.02920361
16	0xbc030835	-0.007997562
17	0xbcf4fb86	-0.029905092
18	0x3d68f486	0.05687382
19	0x3c180c82	0.009280326
20	0xbd194fc1	-0.037429575
21	0x3d190648	0.037359506
22	0x3cab4e21	0.020911278
23	0x3cfc6510	0.03080991
24	0x3c97b6f3	0.018519854
25	0x3c4957f1	0.012289033
26	0x3b02a8d0	0.0019937046
27	0x3c9261b2	0.01786885
28	0x3d132cb2	0.035931297
29	0x3d4ce5b7	0.05002376
30	0x3c59223b	0.01325279
31	0x3c934091	0.017975124
32	0x3cf6ac66	0.030111503
33	0x3d30d9aa	0.04317633
34	0xbd187459	-0.037220333
35	0xbb520b1b	-0.0032050076
36	0x3d001a15	0.031274874
37	0xbd6b51f8	-0.05745122
38	0xbd3dcab8	-0.046335906
39	0x3ceab67c	0.028651468
40	0xbd706aab	-0.058695477
41	0x3d3bf301	0.045886043
42	0x3d3a4bb5	0.045482356
43	0x3d9327fc	0.07185361
44	0x3cd9723a	0.026543725
45	0x3be5d9db	0.007014496
46	0xbc749c0a	-0.014929781
47	0x3d11ca26	0.035593174
48	0xbb9322ac	-0.004490217
49	0xbc82c6e4	-0.015963979
50	0x3d024fc9	0.03181437
51	0x3ce344a2	0.027742688
52	0xbc026c58	-0.0079604015
53	0x3d17fc18	0.03710565
54	0x3d30ea7e	0.04319238
55	0xbc47442f	-0.012162252
56	0x3d3f4159	0.04669318
57	0x3d10d42a	0.035358585
58	0x3caa9b63	0.020826047
59	0x3d10fe61	0.035398845
60	0xbb5f331d	-0.0034057565
61	0x3cd5e1e7	0.026108695
62	0xbcaa5550	-0.020792633
63	0xbbc8683e	-0.0061159423
64	0xbd0624af	-0.032749828
65	0x3d3daba9	0.046306286
66	0x3bf7a6b4	0.0075577144
67	0x3c8ae9f9	0.01695727
68	0xbd541b08	-0.05178359
69	0xbd233a90	-0.03985077
70	0x3d119530	0.035542667
71	0xbd8f67a3	-0.07002189
72	0x3d052cbd	0.03251337
73	0xbc1e84b8	-0.009675197
74	0x3c8b1713	0.016978776
75	0x3d3156c5	0.04329564
76	0xbbd94af4	-0.0066312496
77	0x3d3005c4	0.04297425
78	0x3ccc5093	0.024940765
79	0x3c8d7714	0.017268695
80	0x3d00f707	0.031485584
81	0x3cd99924	0.026562281
82	0x3d196408	0.037448913
83	0xbd92d247	-0.071690135
84	0xbd93a434	-0.07209054
85	0x3d001eee	0.031279497
86	0xbd425a76	-0.04744955
87	0x3d2f7b61	0.042842273
88	0x3d374052	0.044739075
89	0x3ca82ec3	0.02053011
90	0xbcf2dd16	-0.029646438
91	0xbd2e2b94	-0.042522028
92	0xbc6b16d0	-0.014348701
93	0xba67f68d	-0.00088486896
94	0x3c92371c	0.017848544
95	0x3ce4dc4e	0.02793708
96	0x3d0eab7d	0.034831513
97	0xbd0d0043	-0.034424078
98	0xbbb7e244	-0.0056116898
99	0xbd875734	-0.066084296
100	0x3d337526	0.043812893
101	0x3d45caf8	0.04828927
102	0x3d5080c7	0.05090406
103	0x3cea2550	0.028582245
104	0x3d8254d9	0.0636384
105	0x3cfdaef2	0.03096721
106	0x3c201f1d	0.009773043
107	0xbd13753f	-0.036000486
108	0x3d1ca3c2	0.03824211
109	0x3d36c146	0.044617914
110	0xbcb03f8a	-0.021514673
111	0x3a3c5060	0.00071836077
112	0x3d1415e7	0.0361537
113	0x3d67580c	0.056480452
114	0x3b805cfa	0.0039173337
115	0x3d935d99	0.07195587
116	0xbbd95f72	-0.0066336924
117	0xbc0706fc	-0.008241411
118	0x3d06a6be	0.03287386
119	0x3d056f7d	0.032577027
120	0x3cda835d	0.026673967
121	0x3c38455f	0.011247008
122	0x3a0f5733	0.0005468011
123	0x3cddcaa3	0.027074164
124	0x3b151d81	0.0022753181
125	0xbc8d9419	-0.017282533
126	0x3cc13b47	0.023587836
127	0x3cbe45fa	0.023226727
128	0xbd83f0cf	-0.06442415
129	0x3bcbb2c5	0.0062163793
130	0x3b9b2dfb	0.004735706
131	0x3cd63324	0.026147433
132	0x3d26facd	0.040766526
133	0x3d381229	0.044939194
134	0x3d0557cc	0.032554433
135	0x3d927f7c	0.07153222
136	0x3ca4ec8b	0.020132324
137	0x3d0512fb	0.032488804
138	0x3d29a3db	0.04141603
139	0xbd87192f	-0.065966
140	0x3ce8a423	0.028398579
141	0x3cb405ec	0.02197548
142	0x3c9b7ede	0.018981393
143	0xbcd6b267	-0.026208116
144	0xbcab060a	-0.020876903
145	0x3d10d5ab	0.03536002
146	0x3cc7601f	0.024337826
147	0x3cf77a49	0.030209677
148	0xbd07fd30	-0.033200443
149	0x3da0ce3a	0.078518346
150	0x3d1da69f	0.03848898
151	0x3c734abf	0.014849364
152	0x3d2960a6	0.041351937
153	0x3cf0ec5c	0.02940958
154	0xbcdfcd5f	-0.027319608
155	0x3c32b593	0.0109075485
156	0xbc0afa29	-0.008482494
157	0x3cd4046b	0.025881013
158	0x3a32c8a8	0.0006820061
159	0xbd5b7624	-0.053579465
160	0x3b318a88	0.0027090628
161	0xbd2aded0	-0.041716397
162	0x3d2b13fd	0.04176711
163	0x3d302624	0.043005124
164	0x3ab45e61	0.0013761037
165	0x3c797e57	0.015227876
166	0x3d1a3070	0.03764385
167	0x3d1fc931	0.03901023
168	0xbc88d297	-0.01670198
169	0x3cd9cd59	0.026587175
170	0x3d34c4a6	0.04413285
171	0x3d95da99	0.07317085
172	0xbcb6aaad	-0.022298181
173	0xbd43eb87	-0.04783204
174	0x3d3ffecb	0.04687385
175	0x3cd1ee1e	0.025626238
176	0x3d44a550	0.048009217
177	0x3c1f2c7c	0.009715196
178	0x3d206230	0.03915614
179	0xbd06d337	-0.032916274
180	0x3d9aa0d7	0.07550209
181	0xb9205995	-0.00015292161
182	0xba51848c	-0.00079924683
183	0x3d0b11e6	0.033952616
184	0x3d207994	0.039178446
185	0xbcddef00	-0.027091503
186	0x3c10c989	0.008837112
187	0x3caacc41	0.020849349
188	0xbd037a86	-0.03209927
189	0x3cba3f3f	0.022735236
190	0x3c8f6ea1	0.017508807
191	0x3cc784b9	0.02435528
192	0x3b5c6fd8	0.0033636
193	0x3cda5bad	0.026655043
194	0x3c53730c	0.012905847
195	0x3d8e7327	0.06955557
196	0x3befe2a7	0.0073207202
197	0x3d2b0c51	0.041759793
198	0xbc5e152d	-0.013554853
199	0xbc55007c	-0.013000604
200	0xbd046817	-0.03232583
201	0x3d10c942	0.035348184
202	0x39d98bd4	0.00041493645
203	0x3cf375e0	0.029719293
204	0x3b6c971c	0.003610081
205	0x3c94203a	0.018081773
206	0xbcb99098	-0.022651955
207	0x3c900451	0.017580183
208	0xbcc81933	-0.024426078
209	0x3d15e73f	0.036597487
210	0xbaf02d3b	-0.0018324027
211	0x3cc6bdff	0.02426052
212	0x3c02178e	0.007940186
213	0x3d0ab1be	0.033860914
214	0x3d914d93	0.07094874
215	0x3b0bc77c	0.0021328619
216	0xbd73821f	-0.059450265
217	0x3d396b52	0.045268364
218	0x3cbd82aa	0.023133595
219	0xbd56edf6	-0.05247303
220	0x3d0be4e2	0.034153827
221	0x3dc177ae	0.09446655
222	0x3c0ae505	0.008477454
223	0xbc839f60	-0.016067207
224	0x3d069d6d	0.032864977
225	0x3cf45133	0.029823875
226	0x3d2259d1	0.039636437
227	0x3d2f297a	0.042764165
228	0x3d142cd6	0.03617557
229	0x3d36bbc6	0.04461267
230	0x3c2386a9	0.009980836
231	0x3c9ee1fd	0.019394869
232	0x3ca3b6ed	0.019984687
233	0xbda391fe	-0.0798683
234	0x3d032563	0.032018077
235	0x3cf4d1ce	0.029885199
236	0x3ca76e34	0.020438291
237	0xbd8dbbd5	-0.06920592
238	0xbbc39ec3	-0.0059698536
239	0x3ce69667	0.02814789
240	0xbd124475	-0.035709817
241	0xba9f1d3a	-0.0012139447
242	0x3d36f691	0.044668738
243	0x3d31d95d	0.043420184
244	0xbc78da9e	-0.015188841
245	0xbd68c36e	-0.056827
246	0xba2a5294	-0.00064972905
247	0x3d07282f	0.032997306
248	0x3bd4519a	0.006479454
249	0x3d02189b	0.031761747
250	0x3cb7116f	0.02234718
251	0x3cb80e36	0.022467714
252	0x3d34cd48	0.044141084
253	0xbd867ef3	-0.065671824
254	0xbd2eaad7	-0.042643394
255	0xbd44f093	-0.048080992

network_body._body_endoder.seq_layers.2.weight f4 [256, 256]
0	0x3dfcd040	0.12344408
1	0x3cfdea35	0.030995468
2	0x3d512793	0.05106313
3	0x3c3a3716	0.011365673
4	0xbbf7c369	-0.0075611365
5	0xbd8be3c4	-0.06830552
6	0x3e2af3d3	0.16694574
7	0x3c47ba2d	0.012190384
8	0x3c807f11	0.01568559
9	0xbc257f53	-0.010101157
10	0xbc952eb2	-0.018210743
11	0xbd1ae939	-0.037820075
12	0xbdafb100	-0.08578682
13	0xbd5183fe	-0.05115127
14	0x3d4ab89a	0.049492456
15	0x3b3e7400	0.002906084
16	0x3dab5732	0.083662406
17	0x3d4c397d	0.049859513
18	0xbd4193a6	-0.04725995
19	0xbc805ae1	-0.015668334
20	0xbdc7301d	-0.09725974
21	0xbdee1c34	-0.11626473
22	0xbd6d7981	-0.057977203
23	0x3d05eb92	0.03269536
24	0x3cb6ff51	0.022338541
25	0xbc46db72	-0.012137281
26	0xbe055522	-0.13020757
27	0xbc07796c	-0.008268695
28	0x3ca6cbdd	0.020360881
29	0xbe49cdd7	-0.19707428
30	0x3ca1e8a7	0.019764258
31	0x3cf76e35	0.030203918
32	0x3b64dea6	0.0034922748
33	0x3c84182e	0.016124811
34	0xbe1cfbb1	-0.15330388
35	0xbcc53300	-0.02407217
36	0x3db33cef	0.087518565
37	0x3d18b40c	0.03728108
38	0x3d715cf1	0.058926526
39	0xbd3a2393	-0.045444082
40	0x3a51c6f0	0.0008002361
41	0xbe53b6a2	-0.20675138
42	0xbd1c4245	-0.038149137
43	0xbcde0bac	-0.027105175
44	0x3dccebb4	0.10005894
45	0xbd100954	-0.035165146
46	0x3c4d4865	0.012529467
47	0xbe0e9be9	-0.13926663
48	0x3ce7aefc	0.028281681
49	0xbe050d86	-0.1299344
50	0x3d4311ad	0.04762428
51	0xbdfb9630	-0.12284505
52	0x3cacbd0c	0.021086238
53	0x3d82d953	0.063891076
54	0xbd1386e4	-0.036017314
55	0x3d06f092	0.03294427
56	0xbd8be714	-0.06831184
57	0xbe32f553	-0.17476396
58	0x3cc5263d	0.024066085
59	0xbd0cfab9	-0.034418795
60	0xbe1003ac	-0.140639
61	0xbd8cf857	-0.068833046
62	0xbd199bbf	-0.037502047
63	0x3d2447bb	0.04010747
64	0xbd91e3ab	-0.07123502
65	0x3d18da06	0.0373173
66	0xbd9479b6	-0.07249777
67	0xbd3b6b7b	-0.0457568
68	0xbdd35986	-0.103198096
69	0x3e3ba80b	0.18325822
70	0xbc5fa137	-0.013649276
71	0xbe0cae1e	-0.13738295
72	0x3be7907b	0.007066784
73	0xbc91bd5e	-0.017790493
74	0xbdaabc8a	-0.08336742
75	0xbce82fd9	-0.028343128
76	0xbd99dd03	-0.07512858
77	0x3d55a668	0.05216065
78	0x3dda0273	0.106449984
79	0x3c6bff69	0.014404156
80	0x3bae5e10	0.0053212717
81	0x3dbd05ed	0.09229646
82	0xbd9bbe2d	-0.076046325
83	0x3dade7d5	0.08491484
84	0x3bbe94bb	0.00581607
85	0xbd918d66	-0.07107048
86	0xbd1f7d90	-0.038938105
87	0xbdeeb38c	-0.116553396
88	0xbd1db48b	-0.038502257
89	0xbd14077e	-0.036139958
90	0x3cf54d62	0.029944126
91	0x3d1ea40f	0.038730677
92	0xbd221b50	-0.03957683
93	0xbda4b597	-0.08042448
94	0xbdf1056c	-0.11768612
95	0xbe53e6c6	-0.20693502
96	0xbcad0715	-0.021121541
97	0x3ceb3162	0.028710071
98	0xbd877758	-0.0661456
99	0x3e177462	0.1479049
100	0x3d26a7f4	0.040687516
101	0x3c061400	0.008183479
102	0xbd07eead	-0.033186603
103	0x3d768ee2	0.060194857
104	0xbd6c2edc	-0.057661876
105	0x3d1bee41	0.038069014
106	0xbcfeaf2d	-0.03108939
107	0xbd0e4699	-0.034735296
108	0x3dbea419	0.09308643
109	0xbcd2085c	-0.025638752
110	0xbd2bd316	-0.041949354
111	0xbdc6f54f	-0.09714758
112	0x3dae8b03	0.08522608
113	0x3dbc6018	0.09198016
114	0xbd938883	-0.07203772
115	0xbe2b9e84	-0.16759688
116	0xbd1d0765	-0.03833713
117	0x3e24c013	0.16088895
118	0xbbe6427a	-0.0070269676
119	0x3e163632	0.14669111
120	0x3db3c1ec	0.08777222
121	0xbbbfd989	-0.0058547896
122	0xbd2baf12	-0.041915007
123	0x3d815a3e	0.063160405
124	0xbd619832	-0.055076785
125	0xbd9c83b5	-0.076423086
126	0x3d671a98	0.056421846
127	0xbbdbaec0	-0.0067041814
128	0xbd4bf3b0	-0.049792945
129	0xbccf3231	-0.025292488
130	0xbde157a2	-0.11003043
131	0x3e3dc22f	0.18531106
132	0xbd1cbe83	-0.038267624
133	0xbcdd7f5c	-0.027038269
134	0x3e2ab355	0.16669972
135	0x3d49d9a8	0.04927984
136	0xbc7240b2	-0.014785932
137	0x3dd9b52e	0.106302604
138	0x3ddb79b6	0.10716574
139	0xbd11f593	-0.03563459
140	0xbdf292c7	-0.11844402
141	0x3df3801c	0.11889669
142	0xbda26ad0	-0.07930529
143	0x3d7e27b6	0.06204959
144	0xbdc18599	-0.0944931
145	0xbde7a0fa	-0.11310001
146	0x3c716107	0.014732606
147	0x3c9c8a21	0.019108834
148	0xbdba306c	-0.09091267
149	0xbd4398f0	-0.047753274
150	0x3cf3cda7	0.029761149
151	0x3d803d55	0.06261698
152	0xbd7ca168	-0.061677366
153	0xbe317cd0	-0.17332768
154	0xbe02b197	-0.12763058
155	0xbdf958f2	-0.12175168
156	0x3c19c4e5	0.009385322
157	0xbce2331f	-0.027612267
158	0x3d56d03a	0.052444674
159	0xbde59f5e	-0.112120375
160	0xbd65213a	-0.05593989
161	0xbd4c7ed7	-0.04992565
162	0x3d04b138	0.03239557
163	0x3dc41114	0.0957357
164	0x3c14bccb	0.009078215
165	0x3c3fa024	0.011695895
166	0x3de7d554	0.11319986
167	0xbdbce6e5	-0.09223727
168	0x3d88aee0	0.0667398
169	0xbd5a7dc8	-0.05334261
170	0xbbadbc40	-0.005301982
171	0xbb5a7a84	-0.0033337185
172	0x3dde21e7	0.1084631
173	0xbde1094a	-0.109881
174	0xbe003c78	-0.12523067
175	0x3d92aa73	0.07161417
176	0xbd68ba8b	-0.056818526
177	0xbd40128c	-0.046892688
178	0x3b65a242	0.003503934
179	0x3d9d030a	0.07666595
180	0x3c88d644	0.016703732
181	0x3d1f6c54	0.03892167
182	0xbd5f103b	-0.054458838
183	0xbd77c4bb	-0.06049035
184	0xbb6195cd	-0.0034421564
185	0x3cebb2ae	0.028771725
186	0x3d9091e9	0.0705908
187	0xbe3a9f7f	-0.18224905
188	0xbd9cf830	-0.076645255
189	0xbd83b306	-0.064306304
190	0x3cc44b14	0.023961581
191	0xbd6fa45a	-0.058506347
192	0x3d943ee2	0.072385564
193	0xbbeb9f87	-0.007190648
194	0x3e035445	0.12825115
195	0x3d7a2958	0.061074585
196	0xbd8f8e4d	-0.070095636
197	0x3d7f2cb0	0.062298477
198	0xbb864f15	-0.004098783
199	0x3b363883	0.002780468
200	0xbd1f5045	-0.03889491
201	0xbc493e24	-0.012282882
202	0xbe2918db	-0.16513388
203	0x3bc0b4bf	0.0058809216
204	0x3d26c7a2	0.04071773
205	0xbcbac661	-0.022799673
206	0x3d96be0f	0.073604695
207	0xbd8f9714	-0.07011238
208	0x3bb97673	0.005659872
209	0xbd8e90e8	-0.069612324
210	0xbd8772f9	-0.06613726
211	0xbd0096ad	-0.031393696
212	0xbc15435a	-0.009110296
213	0xbdb1f6bf	-0.08689641
214	0xbd0164df	-0.03159034
215	0xbd0b4ea0	-0.03401053
216	0x3d0e29e6	0.034707926
217	0x3bdce506	0.006741169
218	0xbc8a4f5e	-0.016883548
219	0x3dcd2e58	0.10018605
220	0xbd7174a1	-0.058949117
221	0xbdc0e502	-0.0941868
222	0xbde313f3	-0.110877894
223	0xbdb730ff	-0.08944892
224	0xbdf676b7	-0.12034362
225	0xbd0cf27b	-0.034410935
226	0x3bde0168	0.00677507
227	0x3d4ff209	0.050767932
228	0xbc9216b9	-0.0178331
229	0x3bd20f33	0.0064105033
230	0xbd0260a8	-0.03183046
231	0xbdc474f7	-0.09592622
232	0x3d675301	0.056475643
233	0xbd6a0578	-0.05713412
234	0xbd848087	-0.06469827
235	0xbe0b167d	-0.13582797
236	0x3bb9d8f1	0.0056716134
237	0xbde9cc92	-0.11415972
238	0x3cd13967	0.025540067
239	0x3ca52f75	0.02016423
240	0xbceec4a6	-0.029146504
241	0xbd1b5f1a	-0.037932493
242	0x3d943859	0.0723731
243	0xbc988987	-0.018620266
244	0x3c0ca47b	0.008584137
245	0xbc3af6e7	-0.011411405
246	0xbcd18aa1	-0.025578799
247	0xbd85acf6	-0.0652713
248	0xbd7b1172	-0.061295934
249	0xbd9c9091	-0.07644761
250	0x3d8937c8	0.067000926
251	0xbcc63149	-0.024193423
252	0xbb91e2ec	-0.0044521
253	0xbcbd8eef	-0.023139445
254	0x3dfd977a	0.123824075
255	0x3c2ccf9a	0.010547543

network_body.observation_encoder.processors.0.conv_layers.0.bias f4 [16]
0	0xbc9c71ec	-0.019097291
1	0xbd06ca98	-0.032908052
2	0xbb26ee5a	-0.0025471658
3	0xbc0bd793	-0.008535284
4	0x3d02f716	0.03197392
5	0xbba48374	-0.0050205532
6	0x3c04f697	0.008115432
7	0xbd037150	-0.032090485
8	0xb799c6b9	-1.8331559e-05
9	0x3d6c9068	0.057754904
10	0x3a63e449	0.000869338
11	0xbd75cc99	-0.060009573
12	0x3c85db21	0.01633984
13	0xbc2f79e0	-0.01071021
14	0xbc974cad	-0.018469179
15	0xbcd721e2	-0.026261274

network_body.observation_encoder.processors.0.conv_layers.0.weight f4 [16, 4, 8, 8]
0	0x3dc89bdd	0.097953536
1	0x3e2e96cd	0.17049713
2	0x3db6ca0c	0.08925256
3	0xbc57dd69	-0.013175347
4	0x3e104550	0.1408894
5	0x3db0cf87	0.08633333
6	0x3e2d6819	0.16934241
7	0x3e03ea24	0.12882286
8	0x3d796ce7	0.060894873
9	0x3e50f689	0.20406546
10	0x3e2e8939	0.17044534
11	0x3daac1bd	0.08337734
12	0x3d95129a	0.072789386
13	0x3e1c2081	0.15246774
14	0x3e41d095	0.18927224
15	0x3cfb34e2	0.030664865
16	0x3e0187b0	0.12649417
17	0x3df97afd	0.12181661
18	0x3e447607	0.19185649
19	0x3e1fdce2	0.15611604
20	0x3e04e0da	0.12976399
21	0x3ce6d9a0	0.028179944
22	0x3e177bce	0.14793321
23	0x3d0bf5e0	0.03417003
24	0x3df771e3	0.12082269
25	0x3de5ff52	0.11230339
26	0x3dd97f01	0.10619927
27	0x3d7cb040	0.061691523
28	0x3d75da17	0.06002244
29	0xbd81c74b	-0.0633684
30	0x3e03df99	0.12878264
31	0x3d351810	0.0442124
32	0x3c983b73	0.018583035
33	0x3b66fd02	0.003524602
34	0x3d1cad7e	0.038251393
35	0x3d002f11	0.031294886
36	0x3d89ccd6	0.067285225
37	0xbd0b8d42	-0.03407026
38	0x3dc11aaa	0.09428914
39	0x3c740df5	0.014895906
40	0x3e0bb38a	0.13642707
41	0x3d87fc24	0.06639889
42	0xbd8ca4d6	-0.068673775
43	0x3d640892	0.055672236
44	0xbc4f5938	-0.012655549
45	0xbcf17085	-0.029472599
46	0x3d737f74	0.05944772
47	0x3ce08346	0.027406346
48	0x3db7fb86	0.08983521
49	0x3c2c6c9a	0.0105239395
50	0xbce2ecd6	-0.027700823
51	0xbcdb7dbf	-0.026793359
52	0x3d1910c0	0.03736949
53	0x3ce339b9	0.027737485
54	0xbb3aa359	-0.002847871
55	0xbd8ef46c	-0.069802135
56	0x3c82332d	0.015893543
57	0x3ceac038	0.02865611
58	0xbbda130d	-0.006655103
59	0x3cb804e6	0.022463273
60	0x3dc06782	0.093947425
61	0x3aa9cbce	0.0012954415
62	0xbc2daff7	-0.010601035
63	0x3b96f05e	0.0046062907
64	0x3bbf143b	0.005831269
65	0x3ce8f0e7	0.028435184
66	0x3b594cb3	0.0033157289
67	0x3d75ee1e	0.06004154
68	0x3d877555	0.06614176
69	0xbdfbca0f	-0.12294399
70	0xbd8e2bc9	-0.06941945
71	0x3cbee4cd	0.02330246
72	0xbdd0414f	-0.101687066
73	0xbc3b8627	-0.011445559
74	0xbdd662f4	-0.104680926
75	0x3d34b360	0.044116378
76	0xbc853d5d	-0.016264612
77	0x3d2e0eb5	0.042494494
78	0x3d8a0d1d	0.067407824
79	0x3c6f8ac2	0.014620485
80	0xbd49036f	-0.04907554
81	0xbd253ddd	-0.0403422
82	0x3d119b6a	0.035548605
83	0x3d93e298	0.07220954
84	0x3c9db9f2	0.019253705
85	0xbdaeb3ea	-0.0853041
86	0x3d73069f	0.059332486
87	0x3c186cca	0.009303281
88	0xbbd2cde9	-0.006433238
89	0xbcb86003	-0.02250672
90	0x3c65ee21	0.014033825
91	0x3dbd928f	0.092564695
92	0xbdb47e17	-0.08813112
93	0x3d7c1f76	0.06155344
94	0x3de368b6	0.111039564
95	0xbd272813	-0.040809702
96	0xbdba3f46	-0.090941
97	0xbd85cf92	-0.065337315
98	0x3cac3efe	0.02102613
99	0x3d23cee6	0.039992236
100	0xbbd3e6ce	-0.006466723
101	0x3ccc7312	0.024957214
102	0x3d3624cc	0.044468686
103	0xbc5dcabb	-0.013537104
104	0xbd0f3f92	-0.034972735
105	0xbd7b9c10	-0.06142813
106	0x3b8c154f	0.004275001
107	0x3cddc63e	0.027072068
108	0xbc81ae3d	-0.015830154
109	0x3da644df	0.08118605
110	0x3c16b1ea	0.009197691
111	0xbaea2776	-0.0017864543
112	0xbe182662	-0.14858392
113	0xbcec3a4e	-0.028836396
114	0x3d4de646	0.050268434
115	0xbd363e13	-0.044492792
116	0xbd23b97f	-0.039971825
117	0xbd321402	-0.043476112
118	0xbd27a113	-0.040925097
119	0xbdd1a1d1	-0.10235942
120	0xbcec9659	-0.028880285
121	0x3d8e522e	0.06949268
122	0xbcda0243	-0.026612407
123	0xbd8d4aa2	-0.06899001
124	0xbdc55501	-0.09635354
125	0xbd9f950c	-0.077921
126	0xbcbe85af	-0.023257105
127	0xbda65724	-0.081220895
128	0x3d61093e	0.054940455
129	0x3da79a38	0.08183712
130	0x3d21993c	0.039452776
131	0x3d01a2ca	0.03164939
132	0x3bc33562	0.0059572915
133	0xbd6cb04f	-0.05778533
134	0x3be2e79f	0.006924584
135	0x3d2eed33	0.04270668
136	0x3cced4df	0.02524799
137	0xbca54d69	-0.020178514
138	0x3daf5e1d	0.085628726
139	0x3d826abe	0.06368016
140	0x3d36f0ec	0.044663355
141	0xbd5d123c	-0.053972468
142	0xbcf26ee9	-0.029593902
143	0xbd1b1db0	-0.03787011
144	0xbba49d32	-0.005023622
145	0x3d5350e5	0.05159082
146	0xbce2a143	-0.027664786
147	0xbd04fa78	-0.032465428
148	0x39b05930	0.00033635786
149	0x388d9038	6.750267e-05
150	0xbda793a6	-0.081824586
151	0x3cb04b53	0.021520292
152	0x3d93e8e2	0.07222153
153	0x3d4b9416	0.049701773
154	0xbc8a0b4d	-0.016851092
155	0xbc7fbe72	-0.015609371
156	0x3d1b6dfa	0.03794668
157	0x3d44e5ea	0.048070826
158	0xbcb3f85b	-0.021969011
159	0xbc1f05d2	-0.0097059775
160	0x3dec20c3	0.11529686
161	0x3dfa6d26	0.1222785
162	0x3dd7bcff	0.10534095
163	0x3d55ac57	0.05216631
164	0x3d4e959d	0.05043565
165	0xbd6fef23	-0.058577668
166	0xbc16a204	-0.009193901
167	0x3d58058a	0.052739657
168	0x3def45ec	0.116832584
169	0x3d07e618	0.03317842
170	0x3d1c9616	0.03822907
171	0x3d816e88	0.0631991
172	0xbcc309de	-0.023808416
173	0x3cf883c5	0.03033627
174	0xbd61919b	-0.0550705
175	0xbb86d8f8	-0.00411522
176	0x3df3edb7	0.11910575
177	0x3d01a54e	0.031651787
178	0xbc01f191	-0.007931129
179	0xbb8fd903	-0.0043898835
180	0x3d70c008	0.058776885
181	0x3ba1960d	0.0049312175
182	0xbd20df25	-0.039275307
183	0xbd6b3ed7	-0.057432976
184	0x3d25d0cc	0.040482327
185	0xbcdfba56	-0.027310532
186	0x3c31e00e	0.010856641
187	0x3cc01d30	0.023451418
188	0x3d8ffb26	0.07030325
189	0xbd64e7e2	-0.055885203
190	0x3c37940a	0.011204729
191	0x3cfef82a	0.031124193
192	0xbd34a743	-0.044104826
193	0xbd34a617	-0.044103708
194	0xbccd2313	-0.025041139
195	0x3d95f8c5	0.0732284
196	0x3d51980f	0.051170405
197	0x3d31be51	0.04339439
198	0xbda71ae7	-0.08159428
199	0xbba16d36	-0.004926349
200	0x3d51aed6	0.051192127
201	0xbd01010a	-0.03149513
202	0x3da7672c	0.08173975
203	0x3d80464f	0.0626341
204	0x3d956245	0.07294134
205	0x3d1345db	0.03595529
206	0xbc217f88	-0.009857066
207	0x3d4530b8	0.048142165
208	0xbcaad7da	-0.02085488
209	0xbc78f3bd	-0.0151948305
210	0x3db2cc8c	0.087304205
211	0x3d64e260	0.05587995
212	0x3a64fe55	0.0008735408
213	0xbcd51dc1	-0.026015164
214	0x3cea1680	0.028575182
215	0xbe328c88	-0.17436421
216	0xbd67a093	-0.05654962
217	0xbd51ee45	-0.051252622
218	0xbe0f3719	-0.13985862
219	0xbd817ea5	-0.06322984
220	0xbdba9e99	-0.09112281
221	0xbccd9295	-0.02509431
222	0x3cf71fb8	0.030166492
223	0xbdb1a841	-0.0867467
224	0x3dc91cae	0.09819923
225	0x3d14cfc2	0.036330946
226	0x3c69e336	0.014275363
227	0xbca3d95c	-0.020001106
228	0x3b982940	0.0046435893
229	0xbce95876	-0.028484564
230	0xbda68691	-0.08131135
231	0xbdaa0135	-0.083010115
232	0x3dc517dd	0.09623692
233	0x3cd0ab38	0.025472268
234	0xbca79c17	-0.020460172
235	0xbdb49b26	-0.08818655
236	0xbd5c45ad	-0.053777386
237	0xbd563d3b	-0.052304488
238	0xbd8c482e	-0.06849705
239	0xbdd0e4a6	-0.10199861
240	0x3e17ba5a	0.14817181
241	0x3daed603	0.08536913
242	0xbc3c5e76	-0.011497131
243	0x3d4c3b51	0.049861256
244	0x3d60e656	0.054907165
245	0x3d4e3d88	0.05035165
246	0x3d9b0401	0.07569123
247	0x3bae56e8	0.0053204186
248	0x3d4098a0	0.047020555
249	0xb9cd2ed1	-0.00039135528
250	0xbcdc9d82	-0.026930574
251	0x3b7561c4	0.0037442306
252	0xb95fb3d3	-0.00021333927
253	0x3d5ff2c7	0.05467489
254	0x3d928877	0.07154935
255	0x3c78de93	0.015189785

network_body.observation_encoder.processors.0.conv_layers.2.bias f4 [32]
0	0xbd50883d	-0.050911177
1	0xbd1829c6	-0.037149213
2	0xbd3dcf83	-0.046340477
3	0x3c5d3463	0.0135012595
4	0x3d34c8d0	0.044136822
5	0x3d33d72a	0.04390637
6	0xba6ce130	-0.0009036241
7	0x3cb5d016	0.02219395
8	0x3c782659	0.015145862
9	0x3c36e805	0.011163716
10	0x3d55b6e1	0.05217636
11	0xbd3f58d2	-0.046715565
12	0x3d218352	0.039431877
13	0x3c2c402d	0.010513348
14	0xbc9f92ff	-0.019479273
15	0x3d0b193f	0.033959623
16	0xbd0cea72	-0.034403272
17	0x3cdfb2d3	0.02730695
18	0x3d28efce	0.04124432
19	0xbd0c949a	-0.034321405
20	0x3d31d8e0	0.04341972
21	0xbd843c0b	-0.06456765
22	0x3cf9ba6d	0.030484403
23	0x3c3ab38f	0.011395349
24	0x3c8cfff3	0.01721189
25	0xbc420bbf	-0.011843621
26	0x3dafb82a	0.085800484
27	0xbc76c05c	-0.0150605105
28	0x3d5c2d33	0.053754043
29	0xbc952d64	-0.01821012
30	0xbcfdaede	-0.030967172
31	0x3da85054	0.082184464
